# parameters
nc: 80  # number of classes
depth_multiple: 1.0  # model depth multiple
width_multiple: 1.0  # layer channel multiple

# anchors
anchors:
  - [10,13, 16,30, 33,23]  # P3/8
  - [30,61, 62,45, 59,119]  # P4/16
  - [116,90, 156,198, 373,326]  # P5/32

# mobilenetv2 backbone
backbone:
  # [from, number, module, args]
  # Conv args [filters, ksize, stride]
  # QuantConvBNReLU args [filters, ksize, stride=1, padding=None, weight_bitts=8, act_bits=8, groups=1]
  # InvertedResidual args [out_channels, stride, expand_ratio]
  [[-1, 1, QuantConvBNReLU, [32, 3, 2]],          # 0 stride 2

   [-1, 1, QuantInvertedResidual, [16, 1, 1]],

   [-1, 1, QuantInvertedResidual, [24, 2, 6]],    # 2 stride 4
   [-1, 1, QuantInvertedResidual, [24, 1, 6]],

   [-1, 1, QuantInvertedResidual, [32, 2, 6]],    # 4 stride 8
   [-1, 2, QuantInvertedResidual, [32, 1, 6]],

   [-1, 1, QuantInvertedResidual, [64, 2, 6]],        # 6 stride 16
   [-1, 3, QuantInvertedResidual, [64, 1, 6]],

   [-1, 1, QuantInvertedResidual, [96, 1, 6]],       # 8 stride 16
   [-1, 2, QuantInvertedResidual, [96, 1, 6]],

   [-1, 1, QuantInvertedResidual, [160, 2, 6]],      # 10 stride 32
   [-1, 2, QuantInvertedResidual, [160, 1, 6]],  

   [-1, 1, QuantInvertedResidual, [320, 1, 6]],     # 12 stride 32

   [-1, 1, QuantConvBNReLU, [1024, 1, 1]],          # 13 stride 32
  ]


# YOLOv3 head
head:
  [
   [[-1, 9, 5], 1, QuantDetect, [nc, anchors]],   # Detect(P3, P4, P5)
  ]


